model/model.pth (torch, 16799 bytes, 4 tensors)

linear1.weight f4 [256, 11]
0	0x3e97bb12	0.2963491
1	0x3ea1a14b	0.3156837
2	0x3e23e6ff	0.16006087
3	0x3ea14861	0.31500533
4	0xbc2a4777	-0.010393015
5	0xbdae82d4	-0.08521047
6	0xbe1e1d5f	-0.15440892
7	0x3e42c861	0.19021751
8	0x3c6314da	0.013859952
9	0xbce564a4	-0.02800209
10	0x3ed55d2a	0.4167264
11	0x3e4b3045	0.19842632
12	0xbe29583d	-0.16537566
13	0x3ec859fe	0.3913116
14	0x3e330109	0.17480864
15	0xbe37378a	-0.1789228
16	0x3cdedc5b	0.027204683
17	0xbb6fd421	-0.0036594945
18	0x3e1409c2	0.14456847
19	0x3e001762	0.1250892
20	0xbd215a69	-0.039392862
21	0x3ebe09e6	0.37116927
22	0x3d84302e	0.06454502
23	0x3e34a5bf	0.17641352
24	0xbe834dfa	-0.2564543
25	0xbe6ff336	-0.23432621
26	0xbe873cc8	-0.2641356
27	0xbe5866c1	-0.21132948
28	0x3dddb5f5	0.10825721
29	0xbe163450	-0.14668393
30	0xbd93b36a	-0.07211955
31	0x3cdc3ffa	0.026885975
32	0xbe9f0c71	-0.3106418
33	0x3d7840e7	0.06060877
34	0xbcb22a72	-0.021748755
35	0x3d5de4f4	0.054173425
36	0xbc0a1a65	-0.0084291445
37	0x3e06aa92	0.13151005
38	0x3ea63408	0.32461572
39	0x3e58a3df	0.21156262
40	0xbc967ef9	-0.018371092
41	0x3d6c6487	0.057713058
42	0x3d56b3b5	0.052417476
43	0x3ea157c6	0.31512278
44	0x3e41740a	0.18891922
45	0x3edb88c9	0.42877796
46	0xbe3734f9	-0.17891301
47	0xbd8f981d	-0.07011435
48	0x3e9b98aa	0.3038991
49	0x3d9aea9c	0.075642794
50	0x3e2208ee	0.15823719
51	0x3e375aff	0.17905806
52	0x3ed86b23	0.4226924
53	0x3d4f8f77	0.050673928
54	0x3ede4906	0.43415087
55	0xbc0038fe	-0.007826088
56	0xbe12f082	-0.14349559
57	0x3e2b03f2	0.16700724
58	0xbe5c67f7	-0.21524034
59	0xbe4de3d5	-0.20106442
60	0xbdfc7154	-0.12326303
61	0x3e435c83	0.19078259
62	0x3e911664	0.28337395
63	0xbe0702cb	-0.13184659
64	0xbd4a0142	-0.049317606
65	0xbde34149	-0.110964365
66	0x3c1c43e0	0.009537667
67	0x3de3e0a8	0.11126834
68	0xbd66fa60	-0.05639112
69	0x3cbe4050	0.023224026
70	0xbe914366	-0.28371733
71	0xbdc6d036	-0.09707682
72	0xbe09e4d8	-0.13466203
73	0xbcb68ea0	-0.022284806
74	0xbe797d95	-0.24364312
75	0x3d0f66f0	0.03501028
76	0x3e0ecd6c	0.1394555
77	0xbd9eb667	-0.07749634
78	0x3ea3c42b	0.31985602
79	0x3eb3e459	0.35135153
80	0x3e52705a	0.20550671
81	0xbe5a8d55	-0.21342976
82	0xbe0916d5	-0.13387616
83	0x3d3f6c4e	0.046734147
84	0xbe4dac74	-0.20085317
85	0x3d492ead	0.04911678
86	0x3e449e83	0.19201092
87	0x3e876646	0.26445216
88	0x3e4b1270	0.19831252
89	0x3df5ee71	0.1200837
90	0x3dca20cc	0.09869537
91	0xbe7924af	-0.243304
92	0x3e828144	0.25489247
93	0xbdb3f017	-0.08786028
94	0xbd6652d0	-0.05623132
95	0xbe672f2a	-0.22576585
96	0xbd3a3efb	-0.04547022
97	0xbe40deb3	-0.18834953
98	0xbe94661a	-0.28984147
99	0x3e0f3e7c	0.1398868
100	0xbd8355f0	-0.06412876
101	0x3d73467e	0.0593934
102	0xbe8239c0	-0.25434685
103	0x3dcbf0b9	0.099580236
104	0x3e6375f3	0.22212963
105	0x3d5b676f	0.05356544
106	0xbe94ba8b	-0.2904857
107	0x3e6da01b	0.23205607
108	0x3c9229cf	0.017842202
109	0x3d901242	0.070347324
110	0xbe75cb1a	-0.24003258
111	0xbe727e01	-0.23680879
112	0xbe64cbb5	-0.22343333
113	0xbbfca611	-0.0077102263
114	0xbe0612a6	-0.13093051
115	0xbc17d5be	-0.009267269
116	0xbdb518ce	-0.08842622
117	0x3e311a18	0.1729511
118	0x3da6a75f	0.08137392
119	0x3e1e3589	0.1545011
120	0x3da9f3c0	0.08298445
121	0xbe336107	-0.17517482
122	0x3bc3afc0	0.0059718788
123	0xbb1fc180	-0.002437681
124	0xbe55e25e	-0.20887133
125	0xbe5fbf30	-0.21850276
126	0xbe6d6c1e	-0.23185775
127	0xbd0d1ac0	-0.03444934
128	0x3dbd3f48	0.092405856
129	0xbe4485e0	-0.19191694
130	0xbe3d073c	-0.18459791
131	0xbd744730	-0.059638202
132	0x3cc8fc40	0.024534345
133	0x3ea7908b	0.32727465
134	0x3e969c79	0.29416254
135	0x3e8926f6	0.26787537
136	0x3da9f0c7	0.08297878
137	0xbe8fb04b	-0.28064188
138	0xbd61dc51	-0.05514175
139	0x3d8f9a82	0.07011892
140	0xbe4a5b2d	-0.19761343
141	0x3bc38b08	0.0059675016
142	0x3e49cfe2	0.19708207
143	0x3eaaf72a	0.33391696
144	0x3e36fffc	0.17871088
145	0x3db05eda	0.086118415
146	0xbdde70ec	-0.10861382
147	0x3da25861	0.07927013
148	0x3e1a3787	0.15060245
149	0xbde3e797	-0.11128157
150	0x3e4c8b92	0.19975117
151	0x3ed9cafe	0.42537683
152	0xbd239faf	-0.039947208
153	0xbdeae0b5	-0.11468641
154	0xbe45a302	-0.19300464
155	0x3ca1acaf	0.019735662
156	0x3ea3efbc	0.3201884
157	0x3e208353	0.15675096
158	0x3ea48e54	0.32139838
159	0xbdf2b407	-0.11850744
160	0x3e9bf841	0.3046284
161	0xbe66222c	-0.22473973
162	0xbd2387ab	-0.039924305
163	0x3e2a56d0	0.16634679
164	0xbe0d20a6	-0.13781986
165	0x3d9f3af3	0.077749155
166	0x3cca02e5	0.024659583
167	0x3c921415	0.017831841
168	0xbe935c1f	-0.2878122
169	0x3e88ed07	0.26743338
170	0xbe86cffa	-0.2633055
171	0xbcba1313	-0.022714173
172	0xbe39f718	-0.18160665
173	0x3e4d5f96	0.20055994
174	0xbe761bcc	-0.24034041
175	0x3e2705ad	0.16310759
176	0x3e1eeed3	0.15520792
177	0xbe208aad	-0.156779
178	0x3e85b400	0.26113892
179	0xbe7d0f9d	-0.24712987
180	0xbe853534	-0.26017153
181	0x3e78ebdd	0.24308725
182	0xbe871d21	-0.2638941
183	0x3e426bd2	0.18986443
184	0x3ca23858	0.019802257
185	0xbd603213	-0.054735254
186	0xbea176c1	-0.31535915
187	0x3e56c6ed	0.20974322
188	0x3e9a9ca8	0.30197644
189	0x3dc5408c	0.09631452
190	0xbe637990	-0.22214341
191	0x3dd7da2f	0.10539662
192	0x3e17b062	0.14813378
193	0x3e34667a	0.17617217
194	0x3e59e5cd	0.21279068
195	0xbcf40fef	-0.029792754
196	0xbd33e7aa	-0.043922104
197	0x3ebfa544	0.37430775
198	0xbb3ace02	-0.0028504138
199	0x3e67aa28	0.22623503
200	0x3e087809	0.1332704
201	0x3e7f087f	0.24905585
202	0x3eca54f2	0.39517933
203	0x3e303a34	0.17209703
204	0x3d21a5b5	0.03946467
205	0x3e72b2d9	0.23701037
206	0x3ea59f58	0.32348132
207	0xbacf9e20	-0.0015839972
208	0x3eb13e2d	0.3461775
209	0x3dee295f	0.11628985
210	0x3e965e92	0.29369026
211	0x3dc5b7bd	0.09654186
212	0x3d574c91	0.052563254
213	0xbe14f1d8	-0.14545381
214	0xbd9690f7	-0.073518686
215	0x3cf5ab08	0.02998878
216	0x3df50757	0.119642906
217	0xbd0f639a	-0.035007097
218	0x3e5186f7	0.20461641
219	0xbd3582d0	-0.044314206
220	0xbe8e0926	-0.27741355
221	0xbe09cd67	-0.13457261
222	0xbdbe8c94	-0.09304157
223	0xbe3560fc	-0.17712778
224	0xbe87f8bb	-0.26556954
225	0x3d8db22c	0.06918749
226	0x3be8455a	0.0070883455
227	0xbe2e127e	-0.16999242
228	0xbe83ed70	-0.25767088
229	0xbe02b586	-0.12764558
230	0xbdd2bab2	-0.102895156
231	0x3c219a39	0.00986343
232	0xbd88c12b	-0.06677469
233	0xbea28b81	-0.31747058
234	0x3e1fc966	0.15604171
235	0x3e8e40fb	0.2778395
236	0x3e3f93f3	0.18708782
237	0x3e66a700	0.22524643
238	0x3d9484a5	0.072518624
239	0x3d1aba95	0.037775595
240	0xbd9dcc19	-0.07704944
241	0xbe987fad	-0.2978491
242	0xbe216589	-0.15761389
243	0xbe89b405	-0.26895157
244	0x3e1634f5	0.14668639
245	0xbcf1677b	-0.029468289
246	0x3d468494	0.04846628
247	0x3e08d30d	0.1336176
248	0xbcd1ed22	-0.025625769
249	0xbe0d3900	-0.13791275
250	0xbe49761d	-0.19673963
251	0x3eb4fd3c	0.35349452
252	0xbe1c8431	-0.15284802
253	0xbe4c266e	-0.19936535
254	0x3e0205f7	0.12697588
255	0x3e255b65	0.16148145

linear1.bias f4 [256]
0	0xbccda7b2	-0.025104377
1	0xbdeafb44	-0.11473706
2	0x3e31de69	0.17369999
3	0x3d180d5a	0.037122108
4	0x3eb33565	0.35001674
5	0xbd5c3759	-0.05376372
6	0xbe8f10d8	-0.27942538
7	0xbe706195	-0.23474725
8	0xbe06a4d4	-0.13148814
9	0x3da50121	0.08056856
10	0x3e669d4f	0.22520946
11	0xbe0a3b46	-0.13499174
12	0x3ec77cee	0.389625
13	0x3e9554da	0.291663
14	0x3e4fd307	0.20295344
15	0xbe8a2e9e	-0.2698869
16	0xbdefc915	-0.11708275
17	0x3d1792eb	0.037005346
18	0xbd0e3d5b	-0.034726482
19	0x3e09a5d3	0.13442163
20	0x3ad06cad	0.0015901529
21	0x3ccec617	0.025240941
22	0xbe0dba3a	-0.13840571
23	0xbd1ae30e	-0.037814192
24	0x3e62d172	0.2215021
25	0x3cd74976	0.026280146
26	0xbddea994	-0.10872188
27	0xbdd02128	-0.10162574
28	0x3e7c7779	0.2465495
29	0xbd7eab43	-0.062175047
30	0x3aa43fc3	0.001253121
31	0x3e754df3	0.23955517
32	0x3eaf714c	0.34266126
33	0x3eafae26	0.34312552
34	0xbe3c2d45	-0.18376644
35	0x3df5cd5d	0.120020606
36	0xbe03509b	-0.12823717
37	0x3eb8c8f8	0.36090827
38	0x3c7353f9	0.014851564
39	0x3e8819af	0.26582095
40	0x3ea37116	0.31922215
41	0x3e897139	0.26844195
42	0xbe3a7ea8	-0.18212378
43	0x3d3dcf14	0.046340063
44	0x3da2e452	0.07953705
45	0xbde407b1	-0.111342795
46	0x3ebc81d8	0.36817813
47	0x3ee0d2c8	0.43910813
48	0xbd746f69	-0.05967656
49	0xbe5a4f45	-0.21319301
50	0xbd942e75	-0.072354235
51	0x3e987609	0.29777554
52	0xbdc0cdbe	-0.09414242
53	0xbc174f3e	-0.009235201
54	0xbe00d478	-0.1258105
55	0xbe5be027	-0.21472226
56	0xbe4ba9f5	-0.19889052
57	0x3e935d12	0.28781945
58	0xbd0def4d	-0.034652043
59	0x3eac85bf	0.3369579
60	0x3e16ff19	0.1474575
61	0xbe081233	-0.13288192
62	0x3ead0ad8	0.33797336
63	0x3e7b9f23	0.24572425
64	0xbea6997f	-0.32538983
65	0x3e65531c	0.22394985
66	0x3e955f27	0.29174158
67	0xbe794e15	-0.24346192
68	0x3ecb9060	0.39758587
69	0x3e8b74c5	0.27237526
70	0xbdd59452	-0.104286805
71	0xbe556a6b	-0.20841376
72	0xbe4ea0f3	-0.20178585
73	0x3dda56d7	0.10661095
74	0x3ed00060	0.40625286
75	0xbe81ddaf	-0.25364444
76	0xbd03e512	-0.03220088
77	0x3eaba976	0.33527726
78	0xbe8d740a	-0.27627593
79	0x3e0546e7	0.13015328
80	0xbdfe7e7f	-0.12426471
81	0x3e2f8541	0.17140676
82	0x3e8ed103	0.27893838
83	0x3dd8cf20	0.10586381
84	0x3e1b0fc3	0.15142731
85	0x3de3cd41	0.111231335
86	0x3da0a69d	0.07844279
87	0x3da04703	0.078260444
88	0xbbdb8166	-0.006698775
89	0xbe414841	-0.18875219
90	0x3ea42143	0.32056627
91	0x3e97eaa9	0.2967122
92	0x3ec2108a	0.37903243
93	0x3e924b44	0.28573048
94	0x3d82dc52	0.06389679
95	0xbd6c949e	-0.05775892
96	0x3d10fbdb	0.035396438
97	0xbe07220c	-0.13196582
98	0x3e8d3c95	0.27585283
99	0x3ea0cfff	0.31408688
100	0xbe9f7762	-0.3114577
101	0x3ebeb94a	0.3725074
102	0xbe836cd2	-0.2566896
103	0xbe38d4ad	-0.1804988
104	0xbe1a09fd	-0.15042873
105	0x3e4f36c2	0.20235732
106	0x3de7f15f	0.11325335
107	0x3dde64fe	0.108591065
108	0x3e3deb25	0.18546732
109	0xbe8fab00	-0.2806015
110	0x3eb5bfcf	0.354979
111	0x3ec3834f	0.38186118
112	0xbd73ef17	-0.059554186
113	0x3e67c42e	0.2263343
114	0xbdaa5816	-0.08317582
115	0xbe1abde0	-0.15111494
116	0xbdbbd280	-0.09171009
117	0xbd3d1d80	-0.04617071
118	0x3e8378ae	0.2567801
119	0x3de7cbbd	0.11318157
120	0x3edab419	0.4271553
121	0xbe5a5e14	-0.2132495
122	0x3e3fc6e3	0.18728213
123	0x3ec27ff5	0.37988248
124	0xbd4829b9	-0.048867915
125	0x3eaa861b	0.3330544
126	0x3e8756cf	0.26433417
127	0xbe9f5276	-0.311176
128	0x3e8215b5	0.25407186
129	0xbc95bfa3	-0.018279856
130	0x3ec4c482	0.38431174
131	0x3e59b61a	0.21260872
132	0x3ea2a859	0.31769064
133	0x3de0efe9	0.10983259
134	0xbe3e773c	-0.18600172
135	0xbe9b9793	-0.3038908
136	0x3d8c34ad	0.068459846
137	0xbe9f61ab	-0.31129202
138	0x3eca9b34	0.39571536
139	0x3ec35319	0.38149336
140	0xbdc16a93	-0.094441555
141	0x3dd5d6b0	0.10441339
142	0x3e8febc1	0.28109553
143	0x3d213c12	0.03936393
144	0xbe20c140	-0.15698719
145	0x3d3ff19d	0.04686128
146	0x3dc0cb9e	0.09413837
147	0x3eab067a	0.3340338
148	0x3ebaef17	0.36510536
149	0x3ecce81b	0.40020832
150	0x3e883092	0.26599556
151	0x3e971918	0.29511333
152	0x3dc201df	0.09473013
153	0x3dbad6b8	0.091229856
154	0xbd52b7f6	-0.05144497
155	0xbe4cdd5a	-0.20006314
156	0x3e0ecbfb	0.13945
157	0xbbbfd764	-0.005854534
158	0xbda28d3e	-0.07937096
159	0x3e7f83c2	0.24952605
160	0xbe0dbcca	-0.13841549
161	0x3e4a0c3c	0.1973123
162	0x3ea20601	0.31645206
163	0x3edd6e06	0.43248004
164	0x3ed3be22	0.41355997
165	0xbe93bdd7	-0.28855774
166	0x3e04f70c	0.12984866
167	0x3df888ec	0.12135491
168	0xbe54bfad	-0.20776244
169	0xbe0f397a	-0.1398677
170	0xbe82ed2f	-0.25571582
171	0x3ecaa092	0.3957563
172	0xbd8af106	-0.06784253
173	0xbe18f874	-0.14938527
174	0x3ede70ef	0.43445536
175	0x3ead579f	0.33855912
176	0xbe925c16	-0.2858588
177	0xbd928017	-0.071533374
178	0x3e8b1108	0.2716143
179	0xbbaed8e6	-0.005335915
180	0xbdeff2a4	-0.11716202
181	0x3ea0359b	0.31290898
182	0x3d45485e	0.048164718
183	0xbe5a1eab	-0.21300761
184	0xbe2154fc	-0.15755075
185	0x3d2a5c2d	0.041591812
186	0xbe94ac23	-0.2903758
187	0x3d20abb5	0.039226253
188	0x3de68917	0.112566166
189	0xbdf6720c	-0.120334715
190	0xbd22ffc5	-0.039794702
191	0xbd374fab	-0.04475371
192	0xbe4049dc	-0.18778175
193	0x3e9e48a1	0.30914786
194	0xbe9db7b4	-0.30804217
195	0x3e0e02e0	0.13868284
196	0xbc9c4e59	-0.019080328
197	0x3e9f186a	0.31073314
198	0x3e1564cc	0.14589232
199	0xbd55c310	-0.05218798
200	0x3e362b2a	0.17789903
201	0xbdd20d7c	-0.10256478
202	0x3e10d945	0.14145382
203	0x3d99b239	0.075046964
204	0x3e8897c9	0.26678303
205	0x3e999316	0.2999503
206	0xbd8eebc6	-0.06978564
207	0xbdbe9bf5	-0.0930709
208	0xbe83f10b	-0.2576984
209	0xbda44caf	-0.08022439
210	0x3eabf136	0.33582467
211	0xbdd72902	-0.105058685
212	0x3de19343	0.11014416
213	0xbe9bbdcf	-0.3041825
214	0x3e18b794	0.1491378
215	0x3e868b96	0.2627837
216	0xbda1b7dc	-0.078963965
217	0xbe48a2f3	-0.1959341
218	0xbd738e0e	-0.059461646
219	0xbdca6fd5	-0.098846115
220	0x3e698976	0.22806343
221	0xbde587c3	-0.11207535
222	0x3ea41f68	0.3205521
223	0x3eb7a691	0.35869268
224	0x3edace22	0.42735392
225	0xbe0e2598	-0.13881528
226	0xbda80eb6	-0.08205931
227	0x3e95c93f	0.292551
228	0xbd16a2f4	-0.036776498
229	0x3df8387f	0.12120151
230	0x3eac5933	0.33661804
231	0x3e5e08d6	0.21683058
232	0xbe931dea	-0.2873376
233	0x3ebc5a8c	0.36787832
234	0x3db13ce8	0.08654195
235	0x3ebefe0c	0.37303197
236	0x3ec84797	0.3911712
237	0x3e656bc7	0.22404395
238	0x3e687fd3	0.22705011
239	0xbc7a2fcb	-0.015270184
240	0xbe8fdcc3	-0.28098115
241	0xbe3e4d7a	-0.18584242
242	0xbe48e896	-0.19619974
243	0x3ee6fa3c	0.4511279
244	0x3e8769a3	0.26447782
245	0x3ea19fd9	0.31567267
246	0x3e55d30a	0.20881286
247	0x3cb5eafd	0.022206778
248	0xbc4c6505	-0.012475257
249	0xbe237fac	-0.15966672
250	0x3d8d3d19	0.06896419
251	0x3e8c6b24	0.27425492
252	0x3c1b6972	0.009485589
253	0xbe45c572	-0.193136
254	0x3ed44053	0.41455325
255	0x3ea41ff9	0.32055643

linear2.weight f4 [3, 256]
0	0xbdd07bd7	-0.101798706
1	0xbda921ba	-0.08258386
2	0xbd6e0150	-0.05810672
3	0xbdf15bcb	-0.11785086
4	0xbe0746aa	-0.1321055
5	0x3df8411d	0.121217944
6	0x3d05753a	0.0325825
7	0xbe0a8ce8	-0.13530314
8	0x3c581d1f	0.013190537
9	0xbc07537d	-0.008259651
10	0xbc9bfafc	-0.019040577
11	0x3ba937e0	0.0051641315
12	0xbd850364	-0.06494787
13	0xbd86e172	-0.06585969
14	0xbb019ad4	-0.0019776123
15	0xbc822cbc	-0.015890472
16	0x3cb32efb	0.021872988
17	0xbe0453a4	-0.12922531
18	0xbdff1cd4	-0.124566704
19	0xbd606ca0	-0.054791093
20	0xbd2093b8	-0.039203376
21	0xbd98de4b	-0.07464274
22	0x3e02925b	0.12751143
23	0xbd1d5016	-0.038406454
24	0xbd4eaf14	-0.050459936
25	0xbd967f89	-0.07348544
26	0x3c26957e	0.010167478
27	0x3b3d0677	0.0028842965
28	0xbd90eb61	-0.07076145
29	0xbd346997	-0.04404601
30	0xbca0caa6	-0.01962788
31	0x3b950a22	0.004548327
32	0xbe250311	-0.16114451
33	0xbe0f100e	-0.13970968
34	0xbd3c7d28	-0.046017796
35	0xbdeb2df6	-0.11483376
36	0x3ceb5096	0.02872495
37	0xbd995a11	-0.07487882
38	0xbdafbcd5	-0.08580939
39	0xbd029276	-0.031877957
40	0xbce0294d	-0.027363444
41	0x3d79e71a	0.06101141
42	0xbb3f77e1	-0.002921574
43	0x3c69c1bb	0.01426738
44	0xbd3a57fc	-0.045494065
45	0x3c036c65	0.008021449
46	0xbddcfa07	-0.107898764
47	0xbe414e56	-0.18877539
48	0xbd76cf3c	-0.060256228
49	0xbd3fd462	-0.046833403
50	0xbdf06496	-0.11737935
51	0xbdda0675	-0.10645763
52	0xbda845a9	-0.082164116
53	0xbda55f3f	-0.080748074
54	0x3b1d72b7	0.0024024674
55	0xbd440532	-0.047856517
56	0xbb79d060	-0.0038118586
57	0xbdb36e22	-0.087612405
58	0xbdf75d2d	-0.12078319
59	0xbde9e636	-0.114208624
60	0xbdb77b10	-0.08959019
61	0xbdef50c4	-0.11685327
62	0xbe076917	-0.13223682
63	0xbe26cf05	-0.16289909
64	0x3c508e1a	0.012729192
65	0xbdd4eb52	-0.10396446
66	0xbd91767f	-0.071026795
67	0x3d382999	0.044961546
68	0xbd9f343b	-0.07773634
69	0xbd26bcd2	-0.040707417
70	0xbd3c7e9a	-0.046019174
71	0xbda77f5c	-0.08178589
72	0x3c8ce3b4	0.017198421
73	0xbe335641	-0.17513372
74	0xbdb04dee	-0.08608614
75	0x3d2fd4ff	0.04292774
76	0xbca5c749	-0.020236628
77	0xbddd20d1	-0.10797275
78	0x3d11badc	0.035578594
79	0xbe113135	-0.14178927
80	0x3bbd71dd	0.005781396
81	0xbd2cc4fc	-0.042180046
82	0xbe0c2167	-0.13684617
83	0xbe53785f	-0.20651387
84	0xbe0c3992	-0.13693836
85	0xbdd1c0e4	-0.10241869
86	0xbdecd8b1	-0.11564768
87	0x3b233dde	0.0024908702
88	0xbcd49deb	-0.025954207
89	0x3d8b2c30	0.067955375
90	0xbdecbe2a	-0.115597084
91	0xbde84888	-0.11341959
92	0xbd9af64a	-0.07566507
93	0xbd0931a0	-0.03349459
94	0xbd9edff6	-0.07757561
95	0x3cf07352	0.029351864
96	0xbc423479	-0.011853331
97	0xbd47f60c	-0.048818633
98	0xbddfc2bd	-0.10925815
99	0xbe33eee5	-0.175716
100	0x3c96dcf2	0.018415902
101	0xbe03dda5	-0.1287752
102	0x3d615055	0.05500825
103	0x3c7b0c2e	0.015322728
104	0xbd8da6ef	-0.06916606
105	0x3b2912d4	0.0025798576
106	0xbd7604f9	-0.060063336
107	0xbd22e9a0	-0.039773583
108	0xbd6dae79	-0.05802772
109	0xbdd95729	-0.106123276
110	0xbd95ce6c	-0.073147625
111	0xbe319eb7	-0.17345701
112	0xbc409cab	-0.011756103
113	0xbca8d129	-0.020607548
114	0x3cfc748f	0.030817298
115	0xbda5aa69	-0.08089144
116	0x3d2b4515	0.04181393
117	0xbe1ad9e7	-0.15122186
118	0xbe0b5da1	-0.13609935
119	0xbcc8463c	-0.024447553
120	0xbdf37bba	-0.11888833
121	0x3d430492	0.04761178
122	0xbe014f2d	-0.1262786
123	0xbd6d423a	-0.057924487
124	0xbd97ef44	-0.07418683
125	0xbde4b4dd	-0.111673094
126	0xbded9d30	-0.11602247
127	0x3c55b2d0	0.0130431205
128	0xbd8b2d15	-0.06795708
129	0x3a484525	0.0007639698
130	0xbda507c9	-0.080581255
131	0xbdd6ea30	-0.104938865
132	0xbd9d41da	-0.07678576
133	0xbdcc3cff	-0.099725716
134	0xbd3beb98	-0.045878977
135	0xbd375148	-0.04475525
136	0xbd2aa366	-0.041659735
137	0xbd0a7e01	-0.033811573
138	0xbe194021	-0.1496587
139	0xbdb65437	-0.089027815
140	0x3bad5691	0.0052898605
141	0xbd9e5234	-0.07730523
142	0xbd6928b1	-0.056923572
143	0x3c0d79ec	0.0086350255
144	0x3c7ae5a7	0.015313542
145	0x3c225571	0.009908066
146	0xbd44dbbb	-0.048061114
147	0xbe02fabd	-0.12790962
148	0xbdfdb760	-0.12388492
149	0xbdb95c77	-0.090508394
150	0xbd5cf997	-0.053948965
151	0xbd34e48e	-0.04416328
152	0xbd7358aa	-0.05941073
153	0xbe23d746	-0.16000089
154	0x3d112ec0	0.035444975
155	0x3d28a086	0.041168712
156	0xbe00cbd1	-0.1257775
157	0xbe0ea0cf	-0.13928531
158	0xbde0e309	-0.109808035
159	0xbc0cc893	-0.0085927425
160	0xbe0cc296	-0.13746104
161	0xbd3dc258	-0.04632792
162	0xbe352d5d	-0.17693086
163	0xbe4e1476	-0.20124993
164	0xbe3978ba	-0.1811246
165	0x3d80509a	0.062653735
166	0xbd40b92f	-0.047051605
167	0xbd4e7aed	-0.0504102
168	0xbdd8ecdb	-0.105920516
169	0x3cb52dcc	0.022116564
170	0x3d78c701	0.06073666
171	0xbe22df15	-0.15905412
172	0xbe072426	-0.13197383
173	0x3dbcc980	0.092181206
174	0xbe0ef801	-0.13961793
175	0xbde5044a	-0.11182459
176	0x3ba482f6	0.0050204946
177	0xbdc83081	-0.097748764
178	0xbde7bf6e	-0.11315809
179	0x3caab776	0.020839434
180	0xbbcf28a6	-0.0063219843
181	0xbdfb34b9	-0.122659154
182	0xbc8a0e19	-0.016852425
183	0xbdfd1171	-0.12356842
184	0x3b7b4f42	0.0038346802
185	0xbdadd9e1	-0.08488823
186	0x3c7989e8	0.015230633
187	0xbb4f14df	-0.0031598134
188	0x3c570fb4	0.0131263025
189	0x3e0acc30	0.13554454
190	0xbdcb768c	-0.099347204
191	0xbcc6701c	-0.02422338
192	0xbdce0009	-0.100586005
193	0xbe29bdc7	-0.165763
194	0x3bb6c97e	0.005578219
195	0xbe442b1c	-0.1915707
196	0xbe0a16cc	-0.13485259
197	0xbe206220	-0.15662432
198	0xbdeb000a	-0.11474617
199	0xbdb87fa6	-0.09008722
200	0xbdccd021	-0.10000635
201	0xbc8226e3	-0.015887683
202	0xbd9aabaf	-0.07552277
203	0xbe068bea	-0.1313931
204	0xbc916008	-0.017745987
205	0xbde56ae0	-0.112020254
206	0xbdd56f67	-0.10421639
207	0xbda8ae2d	-0.082363464
208	0xbd384672	-0.044989057
209	0xbe26883f	-0.16262911
210	0xbd985861	-0.07438732
211	0xbd8d3b2d	-0.068960525
212	0xbd940bde	-0.07228826
213	0x3c9e09be	0.019291755
214	0xbd813374	-0.06308642
215	0xbade728c	-0.0016971393
216	0x3a0ed062	0.00054479216
217	0xbdbaa4e6	-0.09113483
218	0x3bab04ee	0.0052190935
219	0xbd228a75	-0.039682824
220	0x3b4929fb	0.0030695188
221	0x3d12d984	0.03585197
222	0xbdae080a	-0.08497627
223	0xbd9f9b15	-0.077932514
224	0xbdf9d5ab	-0.12198957
225	0xbd446a76	-0.04795309
226	0x3da30d5d	0.07961533
227	0xbd667c4d	-0.056270886
228	0xbd89f26f	-0.06735694
229	0xbe3f1895	-0.18661721
230	0xbe10cf18	-0.141415
231	0xbdec000e	-0.11523448
232	0x3cc9f8a4	0.024654694
233	0xbe34efce	-0.17669603
234	0xbd3a310e	-0.04545694
235	0xbdd3ed68	-0.10348016
236	0xbdef669f	-0.11689495
237	0xbd5bf4cc	-0.053700253
238	0xbd9d2aeb	-0.076742016
239	0xbda67f7c	-0.081297845
240	0xbc722da0	-0.014781386
241	0x3db2869a	0.087170795
242	0x3d07ae18	0.033125013
243	0xbe1422e7	-0.14466439
244	0xbe181f70	-0.14855742
245	0xbe469029	-0.1939093
246	0xbe076545	-0.13222225
247	0xbe04174f	-0.12899517
248	0xbddf9542	-0.109171405
249	0x3bf938fd	0.0076056705
250	0xbd1316b9	-0.035910342
251	0xbdc27b77	-0.09496205
252	0x3c901d96	0.017592233
253	0x3da0a14d	0.07843266
254	0xbe0c6281	-0.13709451
255	0xbd18ee1d	-0.037336458

linear2.bias f4 [3]
0	0xbdac050e	-0.083994016
1	0xbda593b5	-0.080848135
2	0xbd273d56	-0.04082998
